HW01/model.pth (torch, 14144 bytes, 3 tensors)

dnn_layers.0.weight f4 [32, 93]
00000000: f43c 293d 414a 253d 4f4a c6bc 0aac a8bc
00000010: ed6d 3d3d f789 473d 10a6 a73c c1af 95bd
00000020: 9905 bf3d c296 8dbc 355a 703d 0661 973d
00000030: 173f 81bd 65b4 51bb f1bf 513d 0863 afbc
00000040: 687c 7d3d db69 1c3d 2760 773d e942 583d
00000050: 6cac b33d 0228 bb3d dfa1 6bbd 8040 0fbd
00000060: de3a a9bd dc6c ca3d a646 83bb bab2 16bc
00000070: 1129 a4bd 00c3 82bd 7f34 013d 2373 093b
00000080: 7580 adbd 7311 bbbd baab 0dbd 7331 4bbd
00000090: 555e a73d 33a6 693c 74ff a6bc 84b4 1cbd
000000a0: 6958 343d 9b67 923d d8b7 cabd c179 dbbd
000000b0: 56fb d2bd 31ea db3c 85ea 4e3d 9bd3 543d
000000c0: a013 1fba bb56 f63c b80b 45bc fd3c 12bd
000000d0: 87d1 e6bb 2b84 9e3d fca6 c23d 6e42 0fbe
000000e0: 5765 4abd a88c 69bc f3a2 13bc 2a52 73bd
000000f0: 51bc 78bd 0b89 b4bd 1700 a6bd 10e3 ec3a
00000100: 573d 023e 92a6 32bd 37d8 2a3e 02c6 e23b
00000110: cc0f 313e bec9 d2bd cb8b 9c3d 3b45 f9bc
00000120: 3a3a 0c3e 1d2f 253d ba9c cabd 0307 2ebe
00000130: 8656 9b3d dbe7 f0bd 4fb8 9fbc 1dfa e9ba
00000140: e0e9 90bd d701 fdbc 1a3f f1bc 89a1 23bd
00000150: 4e3c 903d 4e61 b43d 2696 b03c 8157 203d
00000160: 5a9b 183d 01bd aebd dfc8 a93c 12f9 583d
00000170: 29d7 2a3d 8f35 103d 0ade bdbd 4c06 813c
00000180: f259 853d 8140 c5bb bd2b f23d 5cae 1b3e
00000190: be2c 39bd cc04 e1bd 784e 8dbd ccd4 8a3e
000001a0: 1345 90ba ca98 813d 975e 2a3e ecd5 573d
000001b0: 956b 9ebc 50a1 b1bc c663 11be 6712 163d
000001c0: d6c0 2d3c b0f3 0e3e f320 723e 7518 913d
000001d0: 88b3 8d3e ff0f 1b3e b3b7 4dbd 1f24 63bd
000001e0: d14a f03d 75ff 353e d13f fe3c e5f1 fabd
000001f0: 7e8e 933e 5c07 c1bd 4422 23be b707 223e
00000200: 9666 4e3e 2aa6 5d3e cfa9 79be 5bae a2bd
00000210: 4fc0 fa3d e03c 1cbd 3118 973d 04eb 3c3d
00000220: de5b f9bc 3540 573d 63b9 f63d 57ee 2cbd
00000230: 3cd7 ab3c 5f49 853d 5b51 f93c 592c cbbd
00000240: d811 5d3d f8ea 61bc 8c62 a53d 801c 08be
00000250: a631 e73d 63e6 f3bd b316 983d a137 c4bc
00000260: 72ad 16be 62cd 85bd c9f4 973d eb55 bd3d
00000270: 92ff c33d 6cc1 2e3e accf 8f3d a3f5 513d
00000280: 8047 a9bd 29ff ec3b e3dc be3d b044 b83d
00000290: 6112 353c 512c adbd 6d14 84bd 7b44 02be
000002a0: 59cb ab3f 9242 afbb a06e e23d 7739 df3d
000002b0: a4e6 b13d 81de bc3d 0d8d 5dbe 379f c73d
000002c0: 6298 e0bd 7649 183e 1f96 733d c479 073e
000002d0: 4bc1 1bbc 133d 423c f7d0 d93d b2d2 76bd
000002e0: be72 04bd b227 ebbd 0911 91bd 47b8 f1bd
000002f0: c93c 35bd 3cd3 17bd 6fa8 6cbd 614a 193e
00000300: 74e3 f33c 0935 3a3d f82d 593d 0b80 1a3d
00000310: ab1b a13d 683b 6dbd 8f8d 67bc a525 e8bd
00000320: 2db3 3f3d 25c9 f53d 87e2 133d e785 4abe
00000330: 8589 7d3c d5f8 983d d650 14bd bbf6 023e
00000340: 19b3 263e 5d77 c03c 1c3c 28bb c25e 2a3d
00000350: 642f 1bbe 2e13 613d 40e3 653a fd46 92bb
00000360: ba2c 50bc bc1d 0e3e 3079 fdba 1ff7 363d
00000370: 5b22 84bd 85ef e5bd ec19 433c c1dc d9bd
00000380: a191 d23b 0907 a63d 26d2 02bb 6d26 edbd
00000390: f71a 11bd 08ca ccbd be4c c0bd 3f9b 003b
000003a0: 1089 febc 81c6 c63d eef8 aebc d484 57bd
000003b0: 874d 4d3d 7afd 66bc 91a5 b83d fd87 2fbe
000003c0: 88f6 933b 4530 25be 0d53 583c 035e aabc
000003d0: 717e 11be 4c7f c9bd 80e0 83bc 13d1 1ebd
000003e0: 64dd 75bd 8c08 f3bc 5150 373c 3deb b73d
000003f0: 17e6 e0bd 573c f0bd 2f60 033c fa44 c83d
0.041317895 0.040354017 -0.024205355 -0.020589847 0.04624741 0.048715558 0.020464927 -0.07308913
0.093272395 -0.017283801 0.058679778 0.073915526 -0.063108616 -0.0031998393 0.05120844 -0.021409526
0.06188622 0.03818689 0.060394432 0.052798185 0.08773121 0.0913849 -0.05752742 -0.03497362
-0.08263181 0.098840445 -0.0040062247 -0.009197885 -0.08015645 -0.063848495 0.031544205 0.0020973168
-0.08471767 -0.091341875 -0.0345876 -0.049607705 0.08172289 0.014260816 -0.020385481 -0.03825809
0.044029627 0.071486674 -0.09898347 -0.10716582 -0.10301845 0.02684507 0.050516624 0.051959615
-0.0006068293 0.030070653 -0.01202672 -0.035702694 -0.0070440206 0.07740053 0.09504506 -0.13990185
-0.04941305 -0.0142547265 -0.009011018 -0.05940453 -0.060726468 -0.08815201 -0.08105486 0.0018073041
0.12718712 -0.043615885 0.16684042 0.006920577 0.17291182 -0.102923855 0.07643851 -0.03042852
0.13694087 0.040328134 -0.098931745 -0.16994862 0.075848624 -0.11762973 -0.019497065 -0.0017851029
-0.07075858 -0.030884666 -0.029449034 -0.039948974 0.07042752 0.08807622 0.021555971 0.03914595
0.03725753 -0.085321434 0.020725666 0.052971907 0.0417091 0.035207327 -0.09270866 0.015750073
0.06511296 -0.0060196524 0.11824749 0.15203232 -0.045208685 -0.10987243 -0.06899732 0.27115476
-0.0011006914 0.0632797 0.16637646 0.052694246 -0.019338408 -0.021683365 -0.14198217 0.036638644
0.010605058 0.13960147 0.23645382 0.07084743 0.27676034 0.15142821 -0.050224017 -0.05545437
0.1173302 0.1777323 0.03103629 -0.12253169 0.2881965 -0.09425232 -0.1593104 0.15823255
0.20156321 0.21645418 -0.24381183 -0.07943412 0.12243711 -0.038143992 0.07377661 0.046122566
-0.030439314 0.052551467 0.120470785 -0.042219486 0.020976655 0.06508135 0.030434301 -0.09920568
0.053972095 -0.013788931 0.08075437 -0.13292122 0.112887666 -0.11909177 0.074262045 -0.023952307
-0.14714602 -0.06533314 0.07419736 0.09244903 0.095702305 0.17065972 0.07022032 0.051259648
-0.08265591 0.007232566 0.093194745 0.08997476 0.011051745 -0.08455718 -0.064492084 -0.12721436
1.3421432 -0.005348512 0.11056256 0.108996324 0.08686569 0.09222127 -0.21635838 0.09747165
-0.10966565 0.14871773 0.05946934 0.13230044 -0.009506534 0.011855382 0.1063556 -0.06025953
-0.03233599 -0.11482181 -0.07083327 -0.11802726 -0.044247422 -0.037066683 -0.05777782 0.1496978
0.029771544 0.045460735 0.053022355 0.037719768 0.07866605 -0.057917982 -0.014132871 -0.11335305
0.046801735 0.12001256 0.036104705 -0.19777642 0.015474682 0.07469336 -0.036209904 0.12789433
0.16279258 0.023494417 -0.0025670594 0.041594274 -0.15154797 0.05494993 0.00087695196 -0.004464029
-0.012705976 0.1387853 -0.0019338485 0.044669267 -0.06451865 -0.11227325 0.011908036 -0.106378086
0.0064260517 0.081068106 -0.0019961684 -0.11579595 -0.035426106 -0.09999472 -0.093896374 0.0019623784
-0.031071216 0.0970583 -0.021358933 -0.05261691 0.050122764 -0.014098519 0.09015954 -0.17141719
0.004515473 -0.16131695 0.013203395 -0.020796781 -0.1420839 -0.09838733 -0.01609826 -0.038773607
-0.060025588 -0.029667161 0.0111885825 0.08980415 -0.10981386 -0.11730259 0.008018537 0.09778781

dnn_layers.0.bias f4 [32]
00000000: bb57 3bbe d498 0640 cd65 f33e b45f 5cbe
00000010: 4b57 9e3e b897 963c b1bc 933f 5879 d2bd
00000020: e686 993f 889a 44be 2050 5d3f 608b fe3e
00000030: 1d90 0a3f f1c8 de3e f35d 1e3f 9e5d 7f3e
00000040: 65b0 733f 9a79 c83e bb61 3d3f 24d8 ce3d
00000050: 7229 dd3d d772 15be a03b b8bd 91f9 fc3e
00000060: ca48 2cbe d758 453f 2acd 853e d1c3 55be
00000070: 5ee1 3c3d f93c fa3e 0be6 2d3d ff10 223f
-0.18295185 2.103078 0.47538605 -0.21520883 0.30925974 0.018382892 1.1541959 -0.10277051
1.1994293 -0.19199574 0.86450386 0.4971571 0.5412615 0.4351268 0.61862105 0.24938056
0.9519103 0.39155275 0.7397725 0.10099819 0.10798921 -0.14594589 -0.089957476 0.49409154
-0.16824642 0.77088684 0.2613309 -0.2087548 0.046113364 0.48874643 0.042455714 0.63307184

dnn_layers.2.weight f4 [1, 32]
00000000: a689 a3be bec6 c03f 03eb 063f d8c8 d13d
00000010: 7e66 013f 3c49 d33e 5d94 813f f4bc dcbe
00000020: ac6c 783f c6fd ea3d 7a52 1c3f 839a 1c3f
00000030: a9c0 403f df65 3d3e cebc fc3e d96b bd3e
00000040: b3c7 473f a2b0 1d3f 9ad3 f73e ecc7 263e
00000050: 4fdc 983e b92f 9d3e cc9d f0be 8c79 eb3e
00000060: 7787 9d3e 94eb 513f c067 063f 61e4 95be
00000070: 84a8 a43e 2d3a ea3e 375d 363e b610 0b3f
-0.31940955 1.5060651 0.5270235 0.10243386 0.50547016 0.4126681 1.0123402 -0.4311291
0.9704082 0.11474185 0.6106335 0.61173266 0.75293976 0.18495892 0.49362797 0.36996344
0.7803909 0.61597645 0.48403627 0.16287202 0.29855582 0.30700472 -0.4699539 0.4599117
0.30767414 0.8200009 0.5250206 -0.29275802 0.32159817 0.4574751 0.17808996 0.54322374
