HW01/model.pth (torch, 14144 bytes, 3 tensors)

dnn_layers.0.weight f4 [32, 93]
00000000: d7ff a23c c143 753d 7947 6fbc 77e0 e3bc
00000010: 309c 6f3d e7c4 5e3d 2430 893b f573 89bd
00000020: b093 ce3d 32b3 d8bc c3aa 613d 4f63 493d
00000030: ad72 6bbd c6bf 893c 3ec9 053d 0259 82bd
00000040: cb49 803d 6fad 823d 0b74 8d3d 65d4 843c
00000050: 3cd0 b33d a928 bb3d d70a 6cbd 7b31 0fbd
00000060: 5e99 a7bd c3b5 c53d 5850 83bb 863e 15bc
00000070: 7325 a4bd 9abc 82bd af7a c63c d8a1 7c3a
00000080: 246f adbd cc08 bbbd 507f 0dbd f704 2bbd
00000090: d970 a73d 893d 933c 9de0 a6bc f496 20bd
000000a0: 31f2 ce3d 1c04 e13d 84fe 33be 8d86 3fbe
000000b0: 997d 8fbd d98f 163c e80d ab3c 3e4b 873d
000000c0: d516 ecbc edb8 813d d076 7e3b 247d c2bd
000000d0: 1763 77bd 5b1e 5c3e 8e6f 3e3e 1219 17be
000000e0: 106d dbbd df0d a8bd 8239 e73d 48ae 743d
000000f0: 5bcd fcbd 9f20 30be f58c b3bd 442a 53bd
00000100: afa6 c43d fda9 1fbd 7f76 2c3e 6a90 ab3b
00000110: 9554 393e 7131 2bbe b9d5 633c 3089 473d
00000120: d713 633e b3cf 283d 9ca0 48be c579 82be
00000130: 409a 4c3e de2c 1cbd 2eb8 49bd 3669 68bd
00000140: e155 bebd 3529 d5bc 5c92 b7bd 471f 65bd
00000150: ff18 48bc e8da 9a3d afb6 8dbc fea1 453c
00000160: 921e 8f3d 67fc d43b 7bfe a13d 3882 4db9
00000170: 22bc fd3c 2b6e d43d c9e9 b9bd 46c4 96bb
00000180: 9f91 833d 82b3 6cbd dda6 be3d 3ec3 b93d
00000190: f3cf 82bc b0ad 2abe 9fad 6ebd a0a9 8a3e
000001a0: 838b 1c3c a27a bc3d 8a01 683e 21ab 5a3c
000001b0: e7ea 5c3d d378 53bd c5dd 23be 0050 833b
000001c0: 5e45 f1bc 2c3c 493e 060b 623e 1bf8 883d
000001d0: bee7 963e 1e7b 1a3e 3710 acbd 8c19 bfbd
000001e0: 2016 ec3d 499a 6d3e 420e e43c eaed 1abe
000001f0: fa7e 9a3e 489d 2cbd 3d54 1abe d484 393e
00000200: 836e 5d3e be43 833e 2f79 44be 3733 eabd
00000210: ca1e e83d 472e f5bc fa72 393e 2c8e b13d
00000220: e16c c03a 57ff b2bc b8ad 993d bf25 9ebd
00000230: fe9f 263d a101 f0bc 58db 8d3c dada 14be
00000240: 3d92 1a3d 53e5 663c e226 2b3d dbe0 39be
00000250: a1fc f23d 2fe5 f6bd ca30 c73d 5142 7dbb
00000260: 6e63 51be a6e3 f5bd a92a e83d 59af 563d
00000270: a831 063e 3c71 323e 293b da3d 7e8e e6bd
00000280: 08e1 87bd e10e 063b 365a ba3d af9b b73d
00000290: 0729 cbbd 11ff 03be 0056 99bd ba5c 16be
000002a0: 44c6 b03f ba88 1cbe d853 ab3a 8eaf d33d
000002b0: 7e78 da3d cec3 bc3c f574 2abe 9e6c df3d
000002c0: c436 5dbd b895 713d 372b 8eba f0b4 3e3e
000002d0: 46fa cbbd 1b74 37bd 132b af3d 9de6 2dbd
000002e0: 9f44 50bd 6003 cebd 5424 98bc e148 ccbd
000002f0: 25ea 42bd 1aea 96bc 199f b1bd cde9 223e
00000300: b3ad 723d 4997 6c3d 6605 033d 2000 963c
00000310: c9d3 ed3d ec60 b7bd fafc a2bd 3e87 09be
00000320: 1a76 5dbd aac5 203e b79d c13d 5c1e 58be
00000330: 486e f23b 6adb 3e3d e6c6 88bd e167 863e
00000340: b0fe 1c3e 9cef a23c fb90 06bd 17fd 45bd
00000350: 337c 38be fd5e 183d 018b 44bd b734 043e
00000360: 0b47 4cbc d5da 153e da56 51bb bc8a e33d
00000370: a786 48bd 4041 81bd b90c b23d 8405 c2bd
00000380: 7558 013c f9d3 a1bc 2d16 aa3c ff68 2abe
00000390: 5c9b 23bd b32f 0bbe ce60 f7bc d308 9b3d
000003a0: 665c ffbd 97f6 2b3e bc9a 293d b735 1dbe
000003b0: 48d9 903d 4a37 37bd a599 1f3d 9d64 41be
000003c0: bcb5 2f3c 4831 1cbe 0dc3 043c f2ee 80bd
000003d0: 7ede a2bb 736b 8bbd a126 16bd 8674 6cbd
000003e0: cf33 033d c5a1 95bd f299 4f3b 1a9e 443e
000003f0: cf21 adbd cab2 1fbe 486d 183c 5906 d93d
0.019897385 0.05987907 -0.014604443 -0.027816994 0.05849856 0.054387 0.004186647 -0.0671157
0.10086763 -0.026452634 0.05509449 0.049166974 -0.05748241 0.016815078 0.032662623 -0.06364633
0.06264075 0.06380736 0.06906899 0.016214559 0.08779952 0.09138615 -0.057627525 -0.034959298
-0.08183549 0.09653809 -0.0040073805 -0.009109145 -0.08014955 -0.06383629 0.024228422 0.00096371537
-0.08468464 -0.09132537 -0.034545243 -0.04175278 0.08175821 0.017973678 -0.020370776 -0.03920646
0.10104788 0.10987112 -0.17577559 -0.18703671 -0.07006378 0.009189569 0.020880654 0.06606148
-0.02881948 0.063341 0.0038828142 -0.09496525 -0.060397234 0.21495955 0.18597242 -0.14755657
-0.107141614 -0.08205771 0.112902656 0.05973652 -0.12343856 -0.17199944 -0.0876712 -0.05155398
0.09602105 -0.038980473 0.16842078 0.0052357214 0.18098672 -0.16718079 0.013905936 0.048714817
0.22175537 0.041213702 -0.19592518 -0.25483528 0.19980717 -0.038128726 -0.049247913 -0.056740962
-0.09293724 -0.026020626 -0.08963463 -0.05593803 -0.012212991 0.07561284 -0.017299024 0.012062548
0.06988253 0.0064998153 0.079098664 -0.00019598834 0.030973498 0.10372575 -0.09077794 -0.0046010343
0.064242594 -0.05778838 0.093091704 0.090704426 -0.015968299 -0.16667819 -0.058271047 0.2708254
0.009554747 0.09203078 0.22656837 0.013346464 0.053934958 -0.0516289 -0.16002567 0.0040073395
-0.029452022 0.1965186 0.22074518 0.06687947 0.2947368 0.15086028 -0.0840153 -0.093310446
0.115276575 0.23203386 0.02783883 -0.1512982 0.30175 -0.042142183 -0.15071197 0.18117076
0.21624188 0.2563762 -0.19186853 -0.1143555 0.113339975 -0.029929293 0.18110266 0.08669695
0.0014680886 -0.021850271 0.07503837 -0.07722043 0.040679924 -0.029297652 0.017316505 -0.1453661
0.03773712 0.014092761 0.04178513 -0.18152182 0.118645914 -0.12055432 0.09726103 -0.0038644264
-0.20448086 -0.12006311 0.11336262 0.05241332 0.1310488 0.17426008 0.10655815 -0.11257647
-0.06634718 0.0020455646 0.090992376 0.08965241 -0.09919935 -0.12890269 -0.07487106 -0.1468381
1.3810506 -0.15286532 0.0013071252 0.10336219 0.10667513 0.023042586 -0.16646178 0.10909389
-0.054007307 0.058980674 -0.0010846619 0.1862371 -0.09959845 -0.04478846 0.08553138 -0.042456258
-0.050846692 -0.100592375 -0.01857201 -0.09974838 -0.04758658 -0.018422175 -0.086729236 0.159095
0.059247684 0.057761464 0.03198757 0.018310606 0.116126604 -0.08954033 -0.07958408 -0.13430497
-0.05406771 0.15700403 0.0945391 -0.21105331 0.0073984005 0.04659597 -0.06678562 0.26251128
0.1533153 0.019889645 -0.032853108 -0.04833707 -0.18016128 0.037199963 -0.047984127 0.12910734
-0.01246811 0.14634259 -0.0031942637 0.11110446 -0.04895654 -0.063112736 0.08693833 -0.09473708
0.007894625 -0.019754397 0.020762527 -0.16641615 -0.039943084 -0.13592415 -0.030197527 0.075700425
-0.124687955 0.16793285 0.04140733 -0.15352522 0.07072693 -0.044730462 0.038964886 -0.18886037
0.010724481 -0.15253174 0.008103144 -0.06295575 -0.004970371 -0.06807604 -0.036657933 -0.057728313
0.03203183 -0.07306246 0.0031677452 0.19200936 -0.08453714 -0.15595546 0.009303398 0.10596914

dnn_layers.0.bias f4 [32]
00000000: d750 76be 7f0e 0b40 a9a9 0a3f 3681 67be
00000010: 064f e13e 2231 8cbd 1727 a43f fed9 a4bd
00000020: 7c99 a03f 3483 43be ab89 893f 55f7 bf3e
00000030: 7c84 313f fbf9 e23e b5eb 0b3f e22d de3e
00000040: c935 883f 8793 023f 956a 4a3f 1672 483d
00000050: d852 003e cd2e 42be 3762 00be 20e8 d43e
00000060: 153a 58be 7c41 ee3e 9ba7 a13e 07a7 99be
00000070: ae52 b63c 30b4 113f 11bd f6bb ae9b 4c3f
-0.24054275 2.1727598 0.5416513 -0.22607884 0.44005603 -0.06845309 1.2824429 -0.08049391
1.254684 -0.19093019 1.0745138 0.37493387 0.6934278 0.44331345 0.54656535 0.4339438
1.0641414 0.5100636 0.7906888 0.048936926 0.12531602 -0.18963166 -0.12537466 0.41583347
-0.21115907 0.46534336 0.31573185 -0.30010244 0.022256222 0.5691557 -0.0075298627 0.7992505

dnn_layers.2.weight f4 [1, 32]
00000000: 8ba2 15bf 8e1c 9a3f d2f9 253f 26f9 0c3e
00000010: 8b42 2c3f 1702 f53e c402 783f b177 dabe
00000020: b1c8 613f c348 093e fa87 253f 54c2 023f
00000030: f2cd 423f 7854 a53e 899d 923e 20fc cd3e
00000040: 6f91 3f3f a603 3c3f 3f45 cb3e 6ac2 ff3d
00000050: 3817 b03e a1de c93e b0ec 27bf fef2 e83e
00000060: d2b3 e63e 0e53 443f eee2 f03e dff2 0abf
00000070: 4229 6d3e 9151 093f 6fd2 b83e bb73 2b3f
-0.58451146 1.2039964 0.6483432 0.13766918 0.67289037 0.47853157 0.9687922 -0.42669442
0.88196856 0.13406663 0.6466061 0.5107777 0.760955 0.32291007 0.28635815 0.4023142
0.7483129 0.7344307 0.39701268 0.124882534 0.34392715 0.39427665 -0.6559553 0.45497888
0.45059067 0.7668923 0.47048134 -0.5427684 0.2316027 0.53640085 0.36098048 0.66973466
